2
torch.Size([16, 39]) torch.Size([34, 10]) torch.Size([34, 2]) torch.Size([16])
torch.float32 torch.float32 torch.int64 torch.int64
----------------------------------------------------------------
        Layer (type)               Output Shape         Param #
================================================================
            Linear-1                  [-1, 128]           5,120
       BatchNorm1d-2                  [-1, 128]             256
          LinearBn-3                  [-1, 128]               0
              ReLU-4                  [-1, 128]               0
            Linear-5                [-1, 16384]         180,224
       BatchNorm1d-6                [-1, 16384]          32,768
          LinearBn-7                [-1, 16384]               0
              ReLU-8                [-1, 16384]               0
           Dropout-9                  [-1, 256]               0
           Linear-10                    [-1, 1]             257
          Dropout-11                  [-1, 128]               0
           Linear-12                  [-1, 128]          16,512
      BatchNorm1d-13                  [-1, 128]             256
         LinearBn-14                  [-1, 128]               0
          GRUCell-15                  [-1, 128]               0
   graphAttention-16                  [-1, 128]               0
           Linear-17                [-1, 16384]         180,224
      BatchNorm1d-18                [-1, 16384]          32,768
         LinearBn-19                [-1, 16384]               0
             ReLU-20                [-1, 16384]               0
          Dropout-21                  [-1, 256]               0
           Linear-22                    [-1, 1]             257
          Dropout-23                  [-1, 128]               0
           Linear-24                  [-1, 128]          16,512
      BatchNorm1d-25                  [-1, 128]             256
         LinearBn-26                  [-1, 128]               0
          GRUCell-27                  [-1, 128]               0
   graphAttention-28                  [-1, 128]               0
          Dropout-29                  [-1, 256]               0
           Linear-30                    [-1, 1]             257
          Dropout-31                  [-1, 128]               0
           Linear-32                  [-1, 128]          16,512
      BatchNorm1d-33                  [-1, 128]             256
         LinearBn-34                  [-1, 128]               0
          GRUCell-35                  [-1, 128]               0
superatomAttention-36       [[-1, 128], [-1, 1]]               0
          Dropout-37                  [-1, 256]               0
           Linear-38                    [-1, 1]             257
          Dropout-39                  [-1, 128]               0
           Linear-40                  [-1, 128]          16,512
      BatchNorm1d-41                  [-1, 128]             256
         LinearBn-42                  [-1, 128]               0
          GRUCell-43                  [-1, 128]               0
superatomAttention-44       [[-1, 128], [-1, 1]]               0
           Linear-45                  [-1, 512]          66,048
      BatchNorm1d-46                  [-1, 512]           1,024
         LinearBn-47                  [-1, 512]               0
             ReLU-48                  [-1, 512]               0
          Dropout-49                  [-1, 512]               0
           Linear-50                    [-1, 1]             513
1:Running time: 0.44435593999999945 Seconds
torch.Size([16, 39]) torch.Size([34, 10]) torch.Size([34, 2]) torch.Size([16])
torch.float32 torch.float32 torch.int64 torch.int64
----------------------------------------------------------------
        Layer (type)               Output Shape         Param #
================================================================
            Linear-1                  [-1, 128]           5,120
       BatchNorm1d-2                  [-1, 128]             256
          LinearBn-3                  [-1, 128]               0
              ReLU-4                  [-1, 128]               0
            Linear-5                [-1, 16384]         180,224
       BatchNorm1d-6                [-1, 16384]          32,768
          LinearBn-7                [-1, 16384]               0
              ReLU-8                [-1, 16384]               0
           Dropout-9                  [-1, 256]               0
           Linear-10                    [-1, 1]             257
          Dropout-11                  [-1, 128]               0
           Linear-12                  [-1, 128]          16,512
      BatchNorm1d-13                  [-1, 128]             256
         LinearBn-14                  [-1, 128]               0
          GRUCell-15                  [-1, 128]               0
   graphAttention-16                  [-1, 128]               0
           Linear-17                [-1, 16384]         180,224
      BatchNorm1d-18                [-1, 16384]          32,768
         LinearBn-19                [-1, 16384]               0
             ReLU-20                [-1, 16384]               0
          Dropout-21                  [-1, 256]               0
           Linear-22                    [-1, 1]             257
          Dropout-23                  [-1, 128]               0
           Linear-24                  [-1, 128]          16,512
      BatchNorm1d-25                  [-1, 128]             256
         LinearBn-26                  [-1, 128]               0
          GRUCell-27                  [-1, 128]               0
   graphAttention-28                  [-1, 128]               0
          Dropout-29                  [-1, 256]               0
           Linear-30                    [-1, 1]             257
          Dropout-31                  [-1, 128]               0
           Linear-32                  [-1, 128]          16,512
      BatchNorm1d-33                  [-1, 128]             256
         LinearBn-34                  [-1, 128]               0
          GRUCell-35                  [-1, 128]               0
superatomAttention-36       [[-1, 128], [-1, 1]]               0
          Dropout-37                  [-1, 256]               0
           Linear-38                    [-1, 1]             257
          Dropout-39                  [-1, 128]               0
           Linear-40                  [-1, 128]          16,512
      BatchNorm1d-41                  [-1, 128]             256
         LinearBn-42                  [-1, 128]               0
          GRUCell-43                  [-1, 128]               0
superatomAttention-44       [[-1, 128], [-1, 1]]               0
           Linear-45                  [-1, 512]          66,048
      BatchNorm1d-46                  [-1, 512]           1,024
         LinearBn-47                  [-1, 512]               0
             ReLU-48                  [-1, 512]               0
          Dropout-49                  [-1, 512]               0
           Linear-50                    [-1, 1]             513
1:Running time: 0.6715367109999999 Seconds
torch.Size([16, 39]) torch.Size([34, 10]) torch.Size([34, 2]) torch.Size([16])
torch.float32 torch.float32 torch.int64 torch.int64
----------------------------------------------------------------
        Layer (type)               Output Shape         Param #
================================================================
            Linear-1                  [-1, 128]           5,120
       BatchNorm1d-2                  [-1, 128]             256
          LinearBn-3                  [-1, 128]               0
              ReLU-4                  [-1, 128]               0
            Linear-5                [-1, 16384]         180,224
       BatchNorm1d-6                [-1, 16384]          32,768
          LinearBn-7                [-1, 16384]               0
              ReLU-8                [-1, 16384]               0
           Dropout-9                  [-1, 256]               0
           Linear-10                    [-1, 1]             257
          Dropout-11                  [-1, 128]               0
           Linear-12                  [-1, 128]          16,512
      BatchNorm1d-13                  [-1, 128]             256
         LinearBn-14                  [-1, 128]               0
          GRUCell-15                  [-1, 128]               0
   graphAttention-16                  [-1, 128]               0
           Linear-17                [-1, 16384]         180,224
      BatchNorm1d-18                [-1, 16384]          32,768
         LinearBn-19                [-1, 16384]               0
             ReLU-20                [-1, 16384]               0
          Dropout-21                  [-1, 256]               0
           Linear-22                    [-1, 1]             257
          Dropout-23                  [-1, 128]               0
           Linear-24                  [-1, 128]          16,512
      BatchNorm1d-25                  [-1, 128]             256
         LinearBn-26                  [-1, 128]               0
          GRUCell-27                  [-1, 128]               0
   graphAttention-28                  [-1, 128]               0
          Dropout-29                  [-1, 256]               0
           Linear-30                    [-1, 1]             257
          Dropout-31                  [-1, 128]               0
           Linear-32                  [-1, 128]          16,512
      BatchNorm1d-33                  [-1, 128]             256
         LinearBn-34                  [-1, 128]               0
          GRUCell-35                  [-1, 128]               0
superatomAttention-36       [[-1, 128], [-1, 1]]               0
          Dropout-37                  [-1, 256]               0
           Linear-38                    [-1, 1]             257
          Dropout-39                  [-1, 128]               0
           Linear-40                  [-1, 128]          16,512
      BatchNorm1d-41                  [-1, 128]             256
         LinearBn-42                  [-1, 128]               0
          GRUCell-43                  [-1, 128]               0
superatomAttention-44       [[-1, 128], [-1, 1]]               0
           Linear-45                  [-1, 512]          66,048
      BatchNorm1d-46                  [-1, 512]           1,024
         LinearBn-47                  [-1, 512]               0
             ReLU-48                  [-1, 512]               0
          Dropout-49                  [-1, 512]               0
           Linear-50                    [-1, 1]             513
1:Running time: 1.7752433699999983 Seconds
torch.Size([16, 39]) torch.Size([34, 10]) torch.Size([34, 2]) torch.Size([16])
torch.float32 torch.float32 torch.int64 torch.int64
----------------------------------------------------------------
        Layer (type)               Output Shape         Param #
================================================================
            Linear-1                  [-1, 128]           5,120
       BatchNorm1d-2                  [-1, 128]             256
          LinearBn-3                  [-1, 128]               0
              ReLU-4                  [-1, 128]               0
            Linear-5                [-1, 16384]         180,224
       BatchNorm1d-6                [-1, 16384]          32,768
          LinearBn-7                [-1, 16384]               0
              ReLU-8                [-1, 16384]               0
           Dropout-9                  [-1, 256]               0
           Linear-10                    [-1, 1]             257
          Dropout-11                  [-1, 128]               0
           Linear-12                  [-1, 128]          16,512
      BatchNorm1d-13                  [-1, 128]             256
         LinearBn-14                  [-1, 128]               0
          GRUCell-15                  [-1, 128]               0
   graphAttention-16                  [-1, 128]               0
           Linear-17                [-1, 16384]         180,224
      BatchNorm1d-18                [-1, 16384]          32,768
         LinearBn-19                [-1, 16384]               0
             ReLU-20                [-1, 16384]               0
          Dropout-21                  [-1, 256]               0
           Linear-22                    [-1, 1]             257
          Dropout-23                  [-1, 128]               0
           Linear-24                  [-1, 128]          16,512
      BatchNorm1d-25                  [-1, 128]             256
         LinearBn-26                  [-1, 128]               0
          GRUCell-27                  [-1, 128]               0
   graphAttention-28                  [-1, 128]               0
          Dropout-29                  [-1, 256]               0
           Linear-30                    [-1, 1]             257
          Dropout-31                  [-1, 128]               0
           Linear-32                  [-1, 128]          16,512
      BatchNorm1d-33                  [-1, 128]             256
         LinearBn-34                  [-1, 128]               0
          GRUCell-35                  [-1, 128]               0
superatomAttention-36       [[-1, 128], [-1, 1]]               0
          Dropout-37                  [-1, 256]               0
           Linear-38                    [-1, 1]             257
          Dropout-39                  [-1, 128]               0
           Linear-40                  [-1, 128]          16,512
      BatchNorm1d-41                  [-1, 128]             256
         LinearBn-42                  [-1, 128]               0
          GRUCell-43                  [-1, 128]               0
superatomAttention-44       [[-1, 128], [-1, 1]]               0
           Linear-45                  [-1, 512]          66,048
      BatchNorm1d-46                  [-1, 512]           1,024
         LinearBn-47                  [-1, 512]               0
             ReLU-48                  [-1, 512]               0
          Dropout-49                  [-1, 512]               0
           Linear-50                    [-1, 1]             513
1:Running time: 0.8689030110000004 Seconds
torch.Size([16, 39]) torch.Size([34, 10]) torch.Size([34, 2]) torch.Size([16])
torch.float32 torch.float32 torch.int64 torch.int64
----------------------------------------------------------------
        Layer (type)               Output Shape         Param #
================================================================
            Linear-1                  [-1, 128]           5,120
       BatchNorm1d-2                  [-1, 128]             256
          LinearBn-3                  [-1, 128]               0
              ReLU-4                  [-1, 128]               0
            Linear-5                [-1, 16384]         180,224
       BatchNorm1d-6                [-1, 16384]          32,768
          LinearBn-7                [-1, 16384]               0
              ReLU-8                [-1, 16384]               0
           Dropout-9                  [-1, 256]               0
           Linear-10                    [-1, 1]             257
          Dropout-11                  [-1, 128]               0
           Linear-12                  [-1, 128]          16,512
      BatchNorm1d-13                  [-1, 128]             256
         LinearBn-14                  [-1, 128]               0
          GRUCell-15                  [-1, 128]               0
   graphAttention-16                  [-1, 128]               0
           Linear-17                [-1, 16384]         180,224
      BatchNorm1d-18                [-1, 16384]          32,768
         LinearBn-19                [-1, 16384]               0
             ReLU-20                [-1, 16384]               0
          Dropout-21                  [-1, 256]               0
           Linear-22                    [-1, 1]             257
          Dropout-23                  [-1, 128]               0
           Linear-24                  [-1, 128]          16,512
      BatchNorm1d-25                  [-1, 128]             256
         LinearBn-26                  [-1, 128]               0
          GRUCell-27                  [-1, 128]               0
   graphAttention-28                  [-1, 128]               0
          Dropout-29                  [-1, 256]               0
           Linear-30                    [-1, 1]             257
          Dropout-31                  [-1, 128]               0
           Linear-32                  [-1, 128]          16,512
      BatchNorm1d-33                  [-1, 128]             256
         LinearBn-34                  [-1, 128]               0
          GRUCell-35                  [-1, 128]               0
superatomAttention-36       [[-1, 128], [-1, 1]]               0
          Dropout-37                  [-1, 256]               0
           Linear-38                    [-1, 1]             257
          Dropout-39                  [-1, 128]               0
           Linear-40                  [-1, 128]          16,512
      BatchNorm1d-41                  [-1, 128]             256
         LinearBn-42                  [-1, 128]               0
          GRUCell-43                  [-1, 128]               0
superatomAttention-44       [[-1, 128], [-1, 1]]               0
           Linear-45                  [-1, 512]          66,048
      BatchNorm1d-46                  [-1, 512]           1,024
         LinearBn-47                  [-1, 512]               0
             ReLU-48                  [-1, 512]               0
          Dropout-49                  [-1, 512]               0
           Linear-50                    [-1, 1]             513
1:Running time: 0.6676872219999979 Seconds
3:Running time: 11.062817696999998 Seconds
Help on Ridge in module sklearn.linear_model.ridge object:

class Ridge(_BaseRidge, sklearn.base.RegressorMixin)
 |  Ridge(alpha=1.0, fit_intercept=True, normalize=False, copy_X=True, max_iter=None, tol=0.001, solver='auto', random_state=None)
 |  
 |  Linear least squares with l2 regularization.
 |  
 |  Minimizes the objective function::
…
